autorally_control/src/path_integral/params/models/torch_model_autorally_nnet.pt (torch_old, 6660 bytes, 6 tensors)

0.weight f4 [32, 6]
-1.3326367 -0.030374862 -0.36910656 0.044835832 0.23730902 1.32474 2.2737408 -0.5209836
0.5303098 0.05825808 -0.7068146 1.1184995 -1.4107199 -0.18854125 -0.008250444 -0.27016646
-0.321011 0.5084106 -1.4734234 0.05596513 0.5463372 -0.34106833 0.5723403 -2.0661554
-0.1663661 -0.037503496 0.023092534 0.2934128 0.17038268 -0.18695104 -0.1261796 -0.40624732
0.2609759 -0.627117 -1.2402884 -0.5744731 -0.45773062 1.0232358 0.35898817 -1.0592235
-0.7707176 0.5408824 1.0222732 -0.31678122 -0.30471554 -0.2964334 -0.11667644 -0.50943345
2.0821316 -0.07135124 -0.24490288 -0.13580418 -0.289468 -0.9638483 1.6201056 0.04032348
0.3235722 -0.017834064 -0.3087599 2.1754074 2.7162378 -0.38487953 0.94492775 -0.1616786
-0.32374296 0.06581409 0.5877181 0.03958913 -0.20052432 0.085868925 -1.2978458 0.12439145
0.5652143 1.3388464 0.44235024 0.35483357 -0.118417025 1.4569923 0.6642708 -0.87754714
0.20791373 -0.041648183 -0.8435165 -0.5770861 -1.8333169 -0.30108857 0.21717563 0.42913342
0.3451956 -0.1433769 0.58226115 -0.0067942273 -0.007629915 0.44383374 -0.080584385 0.17415166
1.2773569 -0.071287885 0.20272319 -0.25647193 0.11119986 -1.356314 1.0302022 -0.3266471
0.18482432 -0.07537642 0.119601086 3.5773904 -1.0423547 -0.4002919 0.23201266 0.7739638
-0.43289122 0.8598312 -2.006221 -0.27102625 -1.3411195 -0.36086923 0.0044763344 0.9313031
-0.78635865 -0.3036092 -0.22575437 0.6921021 -0.022951912 -0.5028341 0.7969583 0.4073274
0.73468894 -0.5197277 -0.7997983 -0.5776545 0.9876269 -0.45159033 -0.029651355 -0.6728592
0.110961676 -0.01040197 1.2883765 0.08485915 -1.3837254 -0.31917843 0.16236213 0.33121267
-0.05840516 0.027170263 -0.8548802 -0.16010877 0.3262575 -2.4236684 0.61017334 -0.09439415
0.033012833 -0.3436492 0.83821225 0.39753562 0.2720324 0.04369222 -0.1335508 0.40259665
0.5196223 0.26915374 -0.041621003 0.08767266 0.04360366 -0.4295289 -0.14212671 0.12458837
0.84627616 0.0756558 0.028161423 -0.40209168 0.47773406 -0.17220941 -3.0726495 0.06966731
0.104510605 0.30747086 0.08864644 -0.27007398 1.2421815 -0.74124706 -0.09231248 -0.77170616
-0.20273799 -0.17871502 0.2832763 -0.5485564 0.8294953 -1.0054374 0.9607818 0.8066905
00000000: d793 aabf b4d4 f8bc 89fb bcbe c7a5 373d
00000010: 2301 733e 1591 a93f f884 1140 2e5f 05bf
00000020: 62c2 073f 06a0 6e3d cdf1 34bf fe2a 8f3f
00000030: 7892 b4bf f510 41be df2c 07bc 4253 8abe
00000040: 8e5b a4be 3227 023f 2399 bcbf b13b 653d
00000050: c1dc 0b3f 82a0 aebe e584 123f e43b 04c0
00000060: e05b 2abe 449d 19bd 8e2c bd3c 343a 963e
00000070: cc78 2e3e 1870 3fbe 3a35 01be a6ff cfbe
00000080: a29e 853e bd8a 20bf c5c1 9ebf ab10 13bf
00000090: ab5b eabe 64f9 823f 4ccd b73e a394 87bf
000000a0: c04d 45bf 4577 0a3f d9d9 823f 2631 a2be
000000b0: ad03 9cbe 1ec6 97be 0ff4 eebd 3b6a 02bf
000000c0: a541 0540 9920 92bd d2c7 7abe 4010 0bbe
000000d0: 2635 94be c3be 76bf 9f5f cf3f 3c2a 253d
000000e0: 41ab a53e be18 92bc c715 9ebe e039 0b40
000000f0: d7d6 2d40 ee0e c5be c9e6 713f 138f 25be
00000100: a3c1 a5be 8ac9 863d b274 163f 3628 223d
00000110: 3f56 4dbe 0cdc af3d d01f a6bf f2c0 fe3d
00000120: e2b1 103f 525f ab3f bb7b e23e bfac b53e
00000130: a084 f2bd b97e ba3f a70d 2a3f eea6 60bf
00000140: 56e7 543e 4997 2abd b3f0 57bf eabb 13bf
00000150: 21aa eabf 4828 9abe 4a63 5e3e 60b7 db3e
00000160: 7abd b03e 65d1 12be 110f 153f 1ca2 debb
00000170: 5e04 fabb 2d3e e33e 6d09 a5bd d054 323e
00000180: 6e80 a33f 62ff 91bd ab96 4f3e 4a50 83be
00000190: c1bc e33d b29b adbf aadd 833f 4a3e a7be
000001a0: 9642 3d3e f45e 9abd 6af1 f43d f7f3 6440
000001b0: e16b 85bf 0ff3 ccbe ba94 6d3e 7e22 463f
000001c0: eba3 ddbe e61d 5c3f ed65 00c0 f4c3 8abe
000001d0: cea9 abbf dac3 b8be 37ae 923b e169 6e3f
000001e0: cd4e 49bf aa72 9bbe 272c 67be 9a2d 313f
000001f0: a605 bcbc bcb9 00bf 7605 4c3f 388d d03e
00000200: 9314 3c3f e00c 05bf 95bf 4cbf 2ae1 13bf
00000210: 1ed5 7c3f d936 e7be 66e7 f2bc 8040 2cbf
00000220: e03f e33d 066d 2abc 85e9 a43f a2ca ad3d
00000230: ea1d b1bf 5b6b a3be 4242 263e b594 a93e
00000240: 403a 6fbd 2c94 de3c 6ed9 5abf 8ef3 23be
00000250: 390b a73e 621d 1bc0 5234 1c3f b851 c1bd
00000260: 7738 073d caf2 afbe 1495 563f ca89 cb3e
00000270: d547 8b3e 9df6 323d 8ac1 08be 2621 ce3e
00000280: f805 053f 85ce 893e c97a 2abd b98d b33d
00000290: c099 323d 36eb dbbe aa89 11be 3028 ff3d
000002a0: 8ea5 583f 6ef1 9a3d c9b2 e63c f6de cdbe
000002b0: 8f99 f43e aa57 30be 4aa6 44c0 bcad 8e3d
000002c0: a809 d63d d26c 9d3e 448c b53d 2347 8abe
000002d0: ceff 9e3f 5ec2 3dbf 530e bdbd 898e 45bf
000002e0: 8c9a 4fbe 1201 37be 9709 913e 316e 0cbf
000002f0: ce59 543f 2cb2 80bf ccf5 753f 4583 4e3f

0.bias f4 [32]
-0.25562283 -0.80023205 0.67050385 0.1509352 0.30434057 -0.26906052 0.54947925 -0.3060257
-0.03423565 -0.3976957 0.9465103 0.16994531 0.76652616 -0.32276946 -0.14627746 -0.30796093
0.5450277 -0.48926738 0.83924633 0.52902675 0.61960447 -0.5046849 0.77115005 -0.2959368
0.44320944 0.8295379 -0.05170735 -1.0180417 -0.8907478 -0.8409529 -0.7249726 -0.0051447204
00000000: ffe0 82be 02dc 4cbf 24a6 2b3f c28e 1a3e
00000010: 87d2 9b3e 4dc2 89be acaa 0c3f 67af 9cbe
00000020: ae3a 0cbd c59e cbbe 804e 723f 2506 2e3e
00000030: 0f3b 443f 0a42 a5be c2c9 15be 0ead 9dbe
00000040: ef86 0b3f 4181 fabe d9d8 563f 4c6e 073f
00000050: 669e 1e3f 0833 01bf 176a 453f 0785 97be
00000060: 59ec e23e 995c 543f 16cb 53bd 314f 82bf
00000070: 0c08 64bf b048 57bf ce97 39bf 0b95 a8bb

2.weight f4 [32, 32]
1.4619896 0.6162114 0.08043562 -1.0500633 -0.4631667 0.21708617 0.04342623 -0.30161294
-0.8290757 0.97949135 0.2054376 -0.327759 -0.124506585 -0.64123535 -0.13832949 0.02271781
-1.3012842 1.708459 -0.064589426 0.69666547 0.2921413 0.19594873 -0.5458913 0.04810944
-1.3856548 0.5299924 0.2039511 0.35236382 0.33147314 -0.036921978 0.25121355 -0.068417646
-0.11327062 -0.35524222 1.3224438 0.059439935 0.016598726 -0.36740935 -0.1401726 -0.14689012
0.23299083 0.11775988 0.021673992 -0.26338372 0.13146639 -0.120288104 0.13290669 -1.4473327
0.2495245 -0.2653611 0.17194529 -0.2205024 0.043899804 -0.37585074 0.01533157 0.13791862
0.12199387 0.54986733 -0.61604494 0.15674576 0.5413199 -0.0614931 -0.55987734 -0.3831305
-0.52075326 0.13123086 -0.5723069 0.14840117 -0.05556731 -0.28954768 -0.34637925 -0.016713241
0.35436314 0.11988626 0.51921284 -0.043481044 0.2627824 -0.38724968 -0.084477015 0.08046392
0.554236 -0.7796238 -0.34688738 0.29528385 0.20249668 -0.17313384 0.060100537 0.54695064
0.5227036 0.97728735 -0.07640015 0.37012848 0.22474355 -0.53555065 -0.54355884 -0.30154708
0.5264736 0.50674105 -0.88445956 -0.09207793 0.23741825 0.31508616 0.016860124 -0.9289757
-0.42770326 0.073055655 0.35003254 -1.000969 0.24999446 0.29439235 0.25517407 -0.3210756
0.39433143 0.42803922 0.025242586 0.14023921 0.0005036549 -0.13887824 -0.29949743 -0.82966125
0.05522778 -0.02722777 -0.046587117 0.7058595 1.0611409 0.055013765 -0.15064862 -0.49589765
0.044907548 -0.49790624 -0.2926114 -0.20454447 0.13984317 0.27412766 0.43742716 0.59948224
0.8406218 -0.5852885 -0.6867818 0.03900518 0.15889466 -0.26327372 0.07569659 -0.29177684
0.31624663 -0.7380306 -0.19896814 0.45418385 -0.48236895 0.19427355 0.83730066 0.6651237
-0.41317907 -0.7227354 0.19255649 -0.245895 0.111275464 0.5160172 0.33179986 -0.07214311
0.019931374 0.3911219 1.5801554 -0.065167695 -0.42516288 -0.7548498 0.13286528 -0.47562975
-0.13330556 0.4879451 -0.3539487 0.6576356 0.29767013 0.27245128 0.75744545 -1.1059632
0.617117 -0.5128044 -0.11415709 0.17000845 0.3528698 0.5855242 -0.2632704 -0.009870637
-0.5937051 0.93421793 -0.8468965 -0.1643365 0.07037832 -0.6290555 -0.9195565 -0.3985819
0.23488359 0.0332226 -0.9114546 -0.38364014 0.27253518 0.5408235 0.36075684 0.4859347
-0.16399279 -0.1883416 0.15042387 -0.7208112 -0.18823135 0.16703066 -0.38417026 0.6877551
-0.18848841 -0.08023092 -0.08358139 -0.022129165 -0.1728476 0.045923848 0.45013157 0.89132714
0.08270017 -0.25582156 0.86864 -0.40086454 0.005725287 0.49251598 0.38999745 -0.024488125
0.2011775 0.37760735 -0.36533895 -0.5041294 0.6989583 -0.1758291 0.9714773 0.71567374
-0.26773158 0.007099268 -0.47678965 0.35740346 -0.43375927 -0.66833293 -0.44211337 0.9892147
0.5288294 -0.02706972 -0.23969817 0.4621324 -0.48855543 -0.044160325 -0.12259331 0.50005704
-0.0650172 0.4049334 0.4063272 -1.2860472 -1.364095 -0.81216234 0.9970192 -0.73390335
00000000: 7a22 bb3f 08c0 1d3f 6ebb a43d 7968 86bf
00000010: 3024 edbe d64b 5e3e b4df 313d 036d 9abe
00000020: 4e3e 54bf f2bf 7a3f 3c5e 523e 07d0 a7be
00000030: 4ffd febd 0028 24bf 3fa6 0dbe b31a ba3c
00000040: 7b90 a6bf c9ae da3f 7647 84bd ab58 323f
00000050: 8b93 953e c9a6 483e 88bf 0bbf 670e 453d
00000060: 235d b1bf 95ad 073f 8fd8 503e 0869 b43e
00000070: d9b6 a93e 803b 17bd 109f 803e 8d1e 8cbd
00000080: 6dfa e7bd 4fe2 b5be d745 a93f 4a77 733d
00000090: 0dfa 873c 141d bcbe 6889 0fbe 5d6a 16be
000000a0: 2695 6e3e 182c f13d a88d b13c 3bda 86be
000000b0: 209f 063e 9c59 f6bd b118 083e 3342 b9bf
000000c0: 5a83 7f3e 69dd 87be 6d12 303e 62cb 61be
000000d0: 48d0 333d 826f c0be 4431 7b3c 8a3a 0d3e
000000e0: ecd7 f93d 1bc4 0c3f 1fb5 1dbf f681 203e
000000f0: f193 0a3f 30e0 7bbd 1f54 0fbf ae29 c4be
00000100: 1650 05bf 6261 063e b482 12bf 7af6 173e
00000110: 8c9a 63bd 983f 94be 9f58 b1be 35ea 88bc
00000120: 166f b53e ed86 f53d 22eb 043f 2e19 32bd
00000130: 6a8b 863e 9745 c6be 4902 adbd 45ca a43d
00000140: 69e2 0d3f 6d95 47bf 399b b1be 722f 973e
00000150: 4a5b 4f3e ff49 31be fb2b 763d f504 0c3f
00000160: e7cf 053f 812f 7a3f af77 9cbd 7b81 bd3e
00000170: 2c23 663e d919 09bf ac26 0bbf 6164 9abe
00000180: f9c6 063f c8b9 013f f16b 62bf 5b93 bcbd
00000190: c51d 733e f952 a13e 3e1e 8a3c 5ad1 6dbf
000001a0: ecfb dabe 349e 953d 7737 b33e c11f 80bf
000001b0: 8cfe 7f3e 98ba 963e 2da6 823e 0564 a4be
000001c0: cfe5 c93e f527 db3e 8ac9 ce3c de9a 0f3e
000001d0: b507 043a 1936 0ebe ba57 99be ae64 54bf
000001e0: 8636 623d c60c dfbc 22d2 3ebd 35b3 343f
000001f0: 77d3 873f 1d56 613d a243 1abe 4ce6 fdbe
00000200: faf0 373d 91ed febe 29d1 95be 1b74 51be
00000210: 0c33 0f3e 765a 8c3e 74f6 df3e ab77 193f
00000220: fe32 573f 78d5 15bf efd0 2fbf e5c3 1f3d
00000230: 48b5 223e d0cb 86be d006 9b3d c663 95be
00000240: 14eb a13e 93ef 3cbf 4ebe 4bbe c98a e83e
00000250: 10f9 f6be a5ef 463e 5659 563f 8c45 2a3f
00000260: 358c d3be 3005 39bf 872d 453e e6cb 7bbe
00000270: 64e4 e33d b419 043f ace1 a93e c4bf 93bd
00000280: 1f47 a33c 2141 c83e 8842 ca3f a476 85bd
00000290: f3ae d9be d63d 41bf d60d 083e be85 f3be
000002a0: 4181 08be f1d3 f93e c438 b5be cf5a 283f
000002b0: 3868 983e bc7e 8b3e f2e7 413f 3490 8dbf
000002c0: 61fb 1d3f 2647 03bf 31cb e9bd b216 2e3e
000002d0: 5aab b43e eae4 153f 61cb 86be 74b8 21bc
000002e0: 0ffd 17bf e828 6f3f 36ce 58bf d447 28be
000002f0: 8222 903d c809 21bf 0e68 6bbf ed12 ccbe
00000300: 5385 703e 6c14 083d 1755 69bf 7b6c c4be
00000310: bb89 8b3e 6973 0a3f 1fb5 b83e 6fcc f83e
00000320: baed 27be 9fdc 40be b708 1a3e 1587 38bf
00000330: b8bf 40be 160a 2b3e f7b1 c4be b810 303f
00000340: 1b03 41be 1c50 a4bd b82c abbd 3948 b5bc
00000350: f6fe 30be a51a 3c3d a577 e63e 042e 643f
00000360: b55e a93d 0bfb 82be 315f 5e3f 1e3e cdbe
00000370: 309b bb3b 0e2b fc3e bfad c73e 529b c8bc
00000380: 7901 4e3e c055 c13e b50d bbbe a00e 01bf
00000390: eeee 323f 8b0c 34be bdb2 783f 6536 373f
000003a0: 1d14 89be faa0 e83b c61d f4be 96fd b63e
000003b0: b215 debe de17 2bbf af5c e2be 2d3d 7d3f
000003c0: 5d61 073f 51c1 ddbc 7073 75be 9e9c ec3e
000003d0: f023 fabe 75e1 34bd 3412 fbbd bd03 003f
000003e0: bd27 85bd 6e53 cf3e 1e0a d03e 329d a4bf
000003f0: aa9a aebf dfe9 4fbf a63c 7f3f 17e1 3bbf

2.bias f4 [32]
-0.3661681 0.30498508 0.23125456 -0.040491827 0.023478597 0.23941095 -0.02450213 -0.08497418
0.44553056 -0.80474657 -0.20926504 0.45970818 0.38262182 0.51915115 -0.17705248 0.052363493
-0.5526184 -0.29784143 0.42640802 -0.10540799 0.35196814 0.09009306 -0.4089685 -0.032784514
-0.20959237 -0.44021156 -0.18935691 0.08844673 0.3313287 0.05850537 -0.14910689 -0.115416706
00000000: 637a bbbe 0127 9c3e ffcd 6c3e c2da 25bd
00000010: 3056 c03c 2528 753e b1b8 c8bc f106 aebd
00000020: 951c e43e df03 4ebf 9349 56be df5e eb3e
00000030: 02e7 c33e 17e7 043f 3f4d 35be 1a7b 563d
00000040: 6678 0dbf ac7e 98be 2752 da3e 25e0 d7bd
00000050: 2b35 b43e b682 b83d 5264 d1be 0e49 06bd
00000060: 629f 56be 6963 e1be c7e6 41be 8f23 b53d
00000070: eaa3 a93e 54a3 6f3d 7aaf 18be 985f ecbd

4.weight f4 [4, 32]
0.044374958 0.08721094 -0.08101744 -0.06932632 0.0020810603 0.030219555 -0.0051706247 0.007271146
-0.10767406 -0.0073641385 0.047164276 -0.1630529 -0.18911304 0.065216154 -0.0063575255 0.13614857
-0.02905959 0.08248341 0.0034252133 -0.07586314 0.018511333 -0.1538388 0.049619284 -0.0086934455
0.019633228 0.052413177 -0.028034313 0.12384207 -0.15702394 -0.07439129 0.03636511 -0.005527933
1.2767985 1.4371243 0.46503243 -0.08941824 -0.42880946 -0.18089093 0.16507035 -0.4011623
-1.2424769 1.2677816 -0.833881 -0.528263 -1.643335 -1.1699408 0.8871137 -1.1083137
1.4982691 0.37717488 -0.81578094 -0.14285967 -2.1928062 0.5378144 -1.7480421 0.014580683
0.05024442 -0.28175637 1.236169 0.28570527 0.20756608 0.077314116 -0.45948818 -0.36241797
-0.26502973 -1.4986557 -1.1823082 -0.6630933 0.9203707 -2.1891248 1.1755979 1.654361
-1.5971476 -0.055001777 1.4691741 -1.032849 1.2531432 -0.20460688 0.58956987 -0.34765154
0.8978152 0.85053897 0.19882879 -0.7416865 1.1620725 0.5990033 -1.6172571 0.5684166
-0.22322766 -0.3080459 -1.0997287 0.8461445 -0.6336157 1.277634 0.93293947 0.022302218
-0.5136632 0.4647057 -1.2425438 1.5168864 0.7178612 -0.5136318 1.2186544 1.3640622
1.1376563 -0.43192807 -0.52780086 0.76442075 -0.2515579 -0.6938286 1.2409735 -1.0430142
-0.12569979 -0.73034555 1.1363423 -1.186461 0.72592574 1.0660503 0.04884173 1.6578834
-1.4132936 1.0148938 0.54745716 1.3389555 0.84705067 1.072418 -0.9991454 -1.1362169
00000000: 84c2 353d a69b b23d 79ec a5bd f5fa 8dbd
00000010: 6662 083b 008f f73c 586e a9bb cb42 ee3b
00000020: 3884 dcbd df4e f1bb 542f 413d 57f7 26be
00000030: d9a6 41be 0c90 853d ca52 d0bb 886a 0b3e
00000040: 610e eebc 10ed a83d 8b79 603b 225e 9bbd
00000050: 14a5 973c eb87 1dbe 973d 4b3d f46e 0ebc
00000060: ddd5 a03c 33af 563d 37a8 e5bc e9a0 fd3d
00000070: e2ca 20be 765a 98bd 95f3 143d aa23 b5bb
00000080: 226e a33f b0f3 b73f bb18 ee3e e920 b7bd
00000090: ea8c dbbe 793b 39be 3408 293e 2565 cdbe
000000a0: 7c09 9fbf ab46 a23f 3a79 55bf 3e3c 07bf
000000b0: cd58 d2bf 9fc0 95bf e219 633f 39dd 8dbf
000000c0: 48c7 bf3f 111d c13e 05d7 50bf ce49 12be
000000d0: f056 0cc0 34ae 093f d8bf dfbf d1e3 6e3c
000000e0: 18cd 4d3d 5f42 90be c93a 9e3f f647 923e
000000f0: 348c 543e dd56 9e3d 0942 ebbe d98e b9be
00000100: fab1 87be f3d3 bfbf e055 97bf 7cc0 29bf
00000110: 6a9d 6b3f 9f1a 0cc0 fe79 963f 1ac2 d33f
00000120: 556f ccbf 8b49 61bd e60d bc3f 6534 84bf
00000130: ff66 a03f 7784 51be 0dee 163f 62ff b1be
00000140: 38d7 653f ecbc 593f c699 4b3e 2bdf 3dbf
00000150: cbbe 943f 4858 193f 4802 cfbf c083 113f
00000160: cb95 64be 31b8 9dbe e9c3 8cbf ed9c 583f
00000170: a334 22bf 8389 a33f 1fd5 6e3f 24b3 b63c
00000180: 6e7f 03bf e8ed ed3e ad0b 9fbf 5529 c23f
00000190: c0c5 373f 607d 03bf defc 9b3f 9799 ae3f
000001a0: b99e 913f ad25 ddbe f51d 07bf 14b1 433f
000001b0: 32cc 80be c09e 31bf 38d8 9e3f 7d81 85bf
000001c0: 72b7 00be edf7 3abf aa73 913f f4dd 97bf
000001d0: 45d6 393f 5674 883f 440e 483d 8635 d43f
000001e0: cee6 b4bf 0ae8 813f 2726 0c3f e562 ab3f
000001f0: 50d8 583f fe44 893f fec7 7fbf 8e6f 91bf

4.bias f4 [4]
0.07772223 -0.93558836 -0.31578884 0.3582413
00000000: d52c 9f3d b882 6fbf 13af a1be 676b b73e
